  (bn_3): BatchNorm2d(128, eps=1e-05, momentum=0.1, affine=True, track_running_stats=True)
  (mp_3): MaxPool2d(kernel_size=(2, 4), stride=(2, 4), padding=0, dilation=1, ceil_mode=False)
  (conv_4): Conv2d(128, 128, kernel_size=(3, 3), stride=(1, 1), padding=(1, 1))
  (bn_4): BatchNorm2d(128, eps=1e-05, momentum=0.1, affine=True, track_running_stats=True)
  (mp_4): MaxPool2d(kernel_size=(3, 5), stride=(3, 5), padding=0, dilation=1, ceil_mode=False)
  (conv_5): Conv2d(128, 64, kernel_size=(3, 3), stride=(1, 1), padding=(1, 1))
  (bn_5): BatchNorm2d(64, eps=1e-05, momentum=0.1, affine=True, track_running_stats=True)
  (mp_5): MaxPool2d(kernel_size=(4, 4), stride=(4, 4), padding=0, dilation=1, ceil_mode=False)
  (conv_6): Conv2d(64, 64, kernel_size=(1, 1), stride=(1, 1))
  (bn_6): BatchNorm2d(64, eps=1e-05, momentum=0.1, affine=True, track_running_stats=True)
  (conv_7): Conv2d(64, 64, kernel_size=(1, 1), stride=(1, 1))
  (bn_7): BatchNorm2d(64, eps=1e-05, momentum=0.1, affine=True, track_running_stats=True)
  (dense): Linear(in_features=64, out_features=56, bias=True)
  (dropout): Dropout(p=0.5, inplace=False)
)
[2021-10-27 21:43:19] Epoch [1/10] Iter [10/311] train loss: 0.7265 Elapsed: 0:00:45.768515
[2021-10-27 21:44:04] Epoch [1/10] Iter [20/311] train loss: 0.7217 Elapsed: 0:01:31.028950
[2021-10-27 21:44:49] Epoch [1/10] Iter [30/311] train loss: 0.7257 Elapsed: 0:02:16.092867
[2021-10-27 21:45:34] Epoch [1/10] Iter [40/311] train loss: 0.7118 Elapsed: 0:03:01.148334
…
