…
test_env_py38            /Users/karlsimu/miniforge3/envs/test_env_py38

~$ conda activate download_muinf_py38
(download_muinf_py38) ~$ cd /Users/karlsimu/Desktop/SCHOOL/MUSICINFORMATICS/PROJECTMUINF/mtg-jamendo-dataset/scripts/baseline
(download_muinf_py38) baseline(master*)$ python3 main.py --mode 'TRAIN' --audio_path '/Users/karlsimu/Desktop/SCHOOL/MUSICINFORMATICS/PROJECTMUINF/data/' --subset 'moodtheme'
Namespace(audio_path='/Users/karlsimu/Desktop/SCHOOL/MUSICINFORMATICS/PROJECTMUINF/data/', batch_size=32, mode='TRAIN', model_save_path='./models', split=0, subset='moodtheme')
CNN(
  (bn_init): BatchNorm2d(1, eps=1e-05, momentum=0.1, affine=True, track_running_stats=True)
  (conv_1): Conv2d(1, 64, kernel_size=(3, 3), stride=(1, 1), padding=(1, 1))
  (bn_1): BatchNorm2d(64, eps=1e-05, momentum=0.1, affine=True, track_running_stats=True)
  (mp_1): MaxPool2d(kernel_size=(2, 4), stride=(2, 4), padding=0, dilation=1, ceil_mode=False)
  (conv_2): Conv2d(64, 128, kernel_size=(3, 3), stride=(1, 1), padding=(1, 1))
  (bn_2): BatchNorm2d(128, eps=1e-05, momentum=0.1, affine=True, track_running_stats=True)
  (mp_2): MaxPool2d(kernel_size=(2, 4), stride=(2, 4), padding=0, dilation=1, ceil_mode=False)
  (conv_3): Conv2d(128, 128, kernel_size=(3, 3), stride=(1, 1), padding=(1, 1))
  (bn_3): BatchNorm2d(128, eps=1e-05, momentum=0.1, affine=True, track_running_stats=True)
  (mp_3): MaxPool2d(kernel_size=(2, 4), stride=(2, 4), padding=0, dilation=1, ceil_mode=False)
  (conv_4): Conv2d(128, 128, kernel_size=(3, 3), stride=(1, 1), padding=(1, 1))
  (bn_4): BatchNorm2d(128, eps=1e-05, momentum=0.1, affine=True, track_running_stats=True)
  (mp_4): MaxPool2d(kernel_size=(3, 5), stride=(3, 5), padding=0, dilation=1, ceil_mode=False)
  (conv_5): Conv2d(128, 64, kernel_size=(3, 3), stride=(1, 1), padding=(1, 1))
  (bn_5): BatchNorm2d(64, eps=1e-05, momentum=0.1, affine=True, track_running_stats=True)
  (mp_5): MaxPool2d(kernel_size=(4, 4), stride=(4, 4), padding=0, dilation=1, ceil_mode=False)
  (conv_6): Conv2d(64, 64, kernel_size=(1, 1), stride=(1, 1))
  (bn_6): BatchNorm2d(64, eps=1e-05, momentum=0.1, affine=True, track_running_stats=True)
  (conv_7): Conv2d(64, 64, kernel_size=(1, 1), stride=(1, 1))
  (bn_7): BatchNorm2d(64, eps=1e-05, momentum=0.1, affine=True, track_running_stats=True)
  (dense): Linear(in_features=64, out_features=56, bias=True)
  (dropout): Dropout(p=0.5, inplace=False)
)
[2021-10-26 22:09:41] Epoch [1/10] Iter [10/311] train loss: 0.7202 Elapsed: 0:00:46.845778
[2021-10-26 22:10:26] Epoch [1/10] Iter [20/311] train loss: 0.7272 Elapsed: 0:01:32.180139
[2021-10-26 22:11:12] Epoch [1/10] Iter [30/311] train loss: 0.7160 Elapsed: 0:02:17.553330
[2021-10-26 22:11:57] Epoch [1/10] Iter [40/311] train loss: 0.7019 Elapsed: 0:03:02.969287
…
